…
 class="line">34</div><div class="line">35</div><div class="line">36</div><div class="line">37</div><div class="line">38</div><div class="line">39</div><div class="line">40</div><div class="line">41</div><div class="line">42</div><div class="line">43</div><div class="line">44</div><div class="line">45</div></pre></td><td class="code"><pre><div class="line">$ ./darknet detect cfg/yolo.cfg yolo.weights</div><div class="line"># 输入 data/horses.jpg</div><div class="line"># 执行结果如下:</div><div class="line">layer     filters    size              input                output</div><div class="line">    0 conv     32  3 x 3 / 1   608 x 608 x   3   -&gt;   608 x 608 x  32</div><div class="line">    1 max          2 x 2 / 2   608 x 608 x  32   -&gt;   304 x 304 x  32</div><div class="line">    2 conv     64  3 x 3 / 1   304 x 304 x  32   -&gt;   304 x 304 x  64</div><div class="line">    3 max          2 x 2 / 2   304 x 304 x  64   -&gt;   152 x 152 x  64</div><div class="line">    4 conv    128  3 x 3 / 1   152 x 152 x  64   -&gt;   152 x 152 x 128</div><div class="line">    5 conv     64  1 x 1 / 1   152 x 152 x 128   -&gt;   152 x 152 x  64</div><div class="line">    6 conv    128  3 x 3 / 1   152 x 152 x  64   -&gt;   152 x 152 x 128</div><div class="line">    7 max          2 x 2 / 2   152 x 152 x 128   -&gt;    76 x  76 x 128</div><div class="line">    8 conv    256  3 x 3 / 1    76 x  76 x 128   -&gt;    76 x  76 x 256</div><div class="line">    9 conv    128  1 x 1 / 1    76 x  76 x 256   -&gt;    76 x  76 x 128</div><div class="line">   10 conv    256  3 x 3 / 1    76 x  76 x 128   -&gt;    76 x  76 x 256</div><div class="line">   11 max          2 x 2 / 2    76 x  76 x 256   -&gt;    38 x  38 x 256</div><div class="line">   12 conv    512  3 x 3 / 1    38 x  38 x 256   -&gt;    38 x  38 x 512</div><div class="line">   13 conv    256  1 x 1 / 1    38 x  38 x 512   -&gt;    38 x  38 x 256</div><div class="line">   14 conv    512  3 x 3 / 1    38 x  38 x 256   -&gt;    38 x  38 x 512</div><div class="line">   15 conv    256  1 x 1 / 1    38 x  38 x 512   -&gt;    38 x  38 x 256</div><div class="line">   16 conv    512  3 x 3 / 1    38 x  38 x 256   -&gt;    38 x  38 x 512</div><div class="line">   17 max          2 x 2 / 2    38 x  38 x 512   -&gt;    19 x  19 x 512</div><div class="line">   18 conv   1024  3 x 3 / 1    19 x  19 x 512   -&gt;    19 x  19 x1024</div><div class="line">   19 conv    512  1 x 1 / 1    19 x  19 x1024   -&gt;    19 x  19 x 512</div><div class="line">   20 conv   1024  3 x 3 / 1    19 x  19 x 512   -&gt;    19 x  19 x1024</div><div class="line">   21 conv    512  1 x 1 / 1    19 x  19 x1024   -&gt;    19 x  19 x 512</div><div class="line">   22 conv   1024  3 x 3 / 1    19 x  19 x 512   -&gt;    19 x  19 x1024</div><div class="line">   23 conv   1024  3 x 3 / 1    19 x  19 x1024   -&gt;    19 x  19 x1024</div><div class="line">   24 conv   1024  3 x 3 / 1    19 x  19 x1024   -&gt;    19 x  19 x1024</div><div class="line">   25 route  16</div><div class="line">   26 conv     64  1 x 1 / 1    38 x  38 x 512   -&gt;    38 x  38 x  64</div><div class="line">   27 reorg              / 2    38 x  38 x  64   -&gt;    19 x  19 x 256</div><div class="line">   28 route  27 24</div><div class="line">   29 conv   1024  3 x 3 / 1    19 x  19 x1280   -&gt;    19 x  19 x1024</div><div class="line">   30 conv    425  1 x 1 / 1    19 x  19 x1024   -&gt;    19 x  19 x 425</div><div class="line">   31 detection</div><div class="line">mask_scale: Using default &apos;1.000000&apos;</div><div class="line">Loading weights from yolo.weights...Done!</div><div class="line">Enter Image Path: data/horses.jpg</div><div class="line">data/horses.jpg: Predicted in 0.030211 seconds.</div><div class="line">horse: 46%</div><div class="line">horse: 59%</div><div class="line">horse: 91%</div><div class="line"> </div><div class="line">(predictions:31): Gtk-WARNING **: cannot open display:</div></pre></td></tr></table></figure>
…
